…
I0427 10:05:16.735713 1952608256 solver.cpp:81] Creating training net from train_net file: /Users/tianchuliang/documents/gt_acad/7616spring16/hwsoln/hw4/nets/my_sunset_net/my_sunset_net_train_cmdline.prototxt
I0427 10:05:16.736407 1952608256 net.cpp:49] Initializing net from parameters: 
state {
  phase: TRAIN
}
layer {
  name: "data"
  type: "Data"
  top: "data"
  top: "label"
  transform_param {
    mirror: false
    crop_size: 256
    mean_file: "/Users/tianchuliang/documents/gt_acad/7616spring16/hwsoln/hw4/data/Sunset/Train/sunset_train_mean.binaryproto"
  }
  data_param {
    source: "/Users/tianchuliang/documents/gt_acad/7616spring16/hwsoln/hw4/data/Sunset/Train/sunset_train_lmdb"
    batch_size: 50
    backend: LMDB
  }
}
layer {
  name: "conv1"
  type: "Convolution"
  bottom: "data"
  top: "conv1"
  param {
    lr_mult: 0
  }
  param {
    lr_mult: 0
  }
  convolution_param {
    num_output: 96
    pad: 0
    kernel_size: 11
    group: 1
    stride: 4
    weight_filler {
      type: "gaussian"
      std: 0.01
    }
    bias_filler {
      type: "constant"
      value: 0.1
    }
  }
}
layer {
  name: "relu1"
  type: "ReLU"
  bottom: "conv1"
  top: "conv1"
}
layer {
  name: "pool1"
  type: "Pooling"
  bottom: "conv1"
  top: "pool1"
  pooling_param {
    pool: MAX
    kernel_size: 3
    stride: 2
  }
}
layer {
  name: "norm1"
  type: "LRN"
  bottom: "pool1"
  top: "norm1"
  lrn_param {
    local_size: 5
    alpha: 0.0001
    beta: 0.75
  }
}
layer {
  name: "conv2"
  type: "Convolution"
  bottom: "norm1"
  top: "conv2"
  param {
    lr_mult: 0
  }
  param {
    lr_mult: 0
  }
  convolution_param {
    num_output: 256
    pad: 2
    kernel_size: 5
    group: 2
    stride: 1
    weight_filler {
      type: "gaussian"
      std: 0.01
    }
    bias_filler {
      type: "constant"
      value: 0.1
    }
  }
}
layer {
  name: "relu2"
  type: "ReLU"
  bottom: "conv2"
  top: "conv2"
}
layer {
  name: "pool2"
  type: "Pooling"
  bottom: "conv2"
  top: "pool2"
  pooling_param {
    pool: MAX
    kernel_size: 3
    stride: 2
  }
}
layer {
  name: "norm2"
  type: "LRN"
  bottom: "pool2"
  top: "norm2"
  lrn_param {
    local_size: 5
    alpha: 0.0001
    beta: 0.75
  }
}
layer {
  name: "conv3"
  type: "Convolution"
  bottom: "norm2"
  top: "conv3"
  param {
    lr_mult: 0
  }
  param {
    lr_mult: 0
  }
  convolution_param {
    num_output: 384
    pad: 1
    kernel_size: 3
    group: 1
    stride: 1
    weight_filler {
      type: "gaussian"
      std: 0.01
    }
    bias_filler {
      type: "constant"
      value: 0.1
    }
  }
}
layer {
  name: "relu3"
  type: "ReLU"
  bottom: "conv3"
  top: "conv3"
}
layer {
  name: "conv4"
  type: "Convolution"
  bottom: "conv3"
  top: "conv4"
  param {
    lr_mult: 0
  }
  param {
    lr_mult: 0
  }
  convolution_param {
    num_output: 384
    pad: 1
    kernel_size: 3
    group: 2
    stride: 1
    weight_filler {
      type: "gaussian"
      std: 0.01
    }
    bias_filler {
      type: "constant"
      value: 0.1
    }
  }
}
layer {
  name: "relu4"
  type: "ReLU"
  bottom: "conv4"
  top: "conv4"
}
layer {
  name: "conv5"
  type: "Convolution"
  bottom: "conv4"
  top: "conv5"
  param {
    lr_mult: 0
  }
  param {
    lr_mult: 0
  }
  convolution_param {
    num_output: 256
    pad: 1
    kernel_size: 3
    group: 2
    stride: 1
    weight_filler {
      type: "gaussian"
      std: 0.01
    }
    bias_filler {
      type: "constant"
      value: 0.1
    }
  }
}
layer {
  name: "relu5"
  type: "ReLU"
  bottom: "conv5"
  top: "conv5"
}
layer {
  name: "pool5"
  type: "Pooling"
  bottom: "conv5"
  top: "pool5"
  pooling_param {
    pool: MAX
    kernel_size: 3
    stride: 2
  }
}
layer {
  name: "fc6_sunset"
  type: "InnerProduct"
  bottom: "pool5"
  top: "fc6_sunset"
  param {
    lr_mult: 1
    decay_mult: 1
  }
  param {
    lr_mult: 2
    decay_mult: 0
  }
  inner_product_param {
    num_output: 4096
    weight_filler {
      type: "gaussian"
      std: 0.005
    }
    bias_filler {
      type: "constant"
      value: 0.1
    }
  }
}
layer {
  name: "relu6"
  type: "ReLU"
  bottom: "fc6_sunset"
  top: "fc6_sunset"
}
layer {
  name: "drop6"
  type: "Dropout"
  bottom: "fc6_sunset"
  top: "fc6_sunset"
}
layer {
  name: "fc7"
  type: "InnerProduct"
  bottom: "fc6_sunset"
  top: "fc7"
  param {
    lr_mult: 1
    decay_mult: 1
  }
  param {
    lr_mult: 2
    decay_mult: 0
  }
  inner_product_param {
    num_output: 4096
    weight_filler {
      type: "gaussian"
      std: 0.005
    }
    bias_filler {
      type: "constant"
      value: 0.1
    }
  }
}
layer {
  name: "relu7"
  type: "ReLU"
  bottom: "fc7"
  top: "fc7"
}
layer {
  name: "drop7"
  type: "Dropout"
  bottom: "fc7"
  top: "fc7"
}
layer {
  name: "fc8_sunset"
  type: "InnerProduct"
  bottom: "fc7"
  top: "fc8_sunset"
  param {
    lr_mult: 1
    decay_mult: 1
  }
  param {
    lr_mult: 2
    decay_mult: 0
  }
  inner_product_param {
    num_output: 2
  }
}
layer {
  name: "loss"
  type: "SoftmaxWithLoss"
  bottom: "fc8_sunset"
  bottom: "label"
  top: "loss"
}
layer {
  name: "acc"
  type: "Accuracy"
  bottom: "fc8_sunset"
  bottom: "label"
  top: "acc"
}
I0427 10:05:16.736739 1952608256 layer_factory.hpp:77] Creating layer data
I0427 10:05:16.741297 1952608256 net.cpp:91] Creating Layer data
I0427 10:05:16.741317 1952608256 net.cpp:399] data -> data
I0427 10:05:16.741341 1952608256 net.cpp:399] data -> label
I0427 10:05:16.741358 1952608256 data_transformer.cpp:25] Loading mean file from: /Users/tianchuliang/documents/gt_acad/7616spring16/hwsoln/hw4/data/Sunset/Train/sunset_train_mean.binaryproto
I0427 10:05:16.742683 528384 db_lmdb.cpp:38] Opened lmdb /Users/tianchuliang/documents/gt_acad/7616spring16/hwsoln/hw4/data/Sunset/Train/sunset_train_lmdb
I0427 10:05:16.745901 1952608256 data_layer.cpp:41] output data size: 50,3,256,256
I0427 10:05:16.800559 1952608256 net.cpp:141] Setting up data
I0427 10:05:16.800602 1952608256 net.cpp:148] Top shape: 50 3 256 256 (9830400)
I0427 10:05:16.800618 1952608256 net.cpp:148] Top shape: 50 (50)
I0427 10:05:16.800626 1952608256 net.cpp:156] Memory required for data: 39321800
I0427 10:05:16.800688 1952608256 layer_factory.hpp:77] Creating layer label_data_1_split
I0427 10:05:16.800712 1952608256 net.cpp:91] Creating Layer label_data_1_split
I0427 10:05:16.800720 1952608256 net.cpp:425] label_data_1_split <- label
I0427 10:05:16.800730 1952608256 net.cpp:399] label_data_1_split -> label_data_1_split_0
I0427 10:05:16.800742 1952608256 net.cpp:399] label_data_1_split -> label_data_1_split_1
I0427 10:05:16.800755 1952608256 net.cpp:141] Setting up label_data_1_split
I0427 10:05:16.800761 1952608256 net.cpp:148] Top shape: 50 (50)
I0427 10:05:16.800768 1952608256 net.cpp:148] Top shape: 50 (50)
I0427 10:05:16.800775 1952608256 net.cpp:156] Memory required for data: 39322200
I0427 10:05:16.800781 1952608256 layer_factory.hpp:77] Creating layer conv1
I0427 10:05:16.800796 1952608256 net.cpp:91] Creating Layer conv1
I0427 10:05:16.800801 1952608256 net.cpp:425] conv1 <- data
I0427 10:05:16.800817 1952608256 net.cpp:399] conv1 -> conv1
I0427 10:05:16.801720 1952608256 net.cpp:141] Setting up conv1
I0427 10:05:16.801738 1952608256 net.cpp:148] Top shape: 50 96 62 62 (18451200)
I0427 10:05:16.801748 1952608256 net.cpp:156] Memory required for data: 113127000
I0427 10:05:16.801762 1952608256 layer_factory.hpp:77] Creating layer relu1
I0427 10:05:16.801781 1952608256 net.cpp:91] Creating Layer relu1
I0427 10:05:16.801787 1952608256 net.cpp:425] relu1 <- conv1
I0427 10:05:16.801843 1952608256 net.cpp:386] relu1 -> conv1 (in-place)
I0427 10:05:16.801862 1952608256 net.cpp:141] Setting up relu1
I0427 10:05:16.801867 1952608256 net.cpp:148] Top shape: 50 96 62 62 (18451200)
I0427 10:05:16.801897 1952608256 net.cpp:156] Memory required for data: 186931800
I0427 10:05:16.801905 1952608256 layer_factory.hpp:77] Creating layer pool1
I0427 10:05:16.801924 1952608256 net.cpp:91] Creating Layer pool1
I0427 10:05:16.801931 1952608256 net.cpp:425] pool1 <- conv1
I0427 10:05:16.801941 1952608256 net.cpp:399] pool1 -> pool1
I0427 10:05:16.801966 1952608256 net.cpp:141] Setting up pool1
I0427 10:05:16.801975 1952608256 net.cpp:148] Top shape: 50 96 31 31 (4612800)
I0427 10:05:16.801983 1952608256 net.cpp:156] Memory required for data: 205383000
I0427 10:05:16.801990 1952608256 layer_factory.hpp:77] Creating layer norm1
I0427 10:05:16.802002 1952608256 net.cpp:91] Creating Layer norm1
I0427 10:05:16.802011 1952608256 net.cpp:425] norm1 <- pool1
I0427 10:05:16.802021 1952608256 net.cpp:399] norm1 -> norm1
I0427 10:05:16.802037 1952608256 net.cpp:141] Setting up norm1
I0427 10:05:16.802043 1952608256 net.cpp:148] Top shape: 50 96 31 31 (4612800)
I0427 10:05:16.802052 1952608256 net.cpp:156] Memory required for data: 223834200
I0427 10:05:16.802058 1952608256 layer_factory.hpp:77] Creating layer conv2
I0427 10:05:16.802078 1952608256 net.cpp:91] Creating Layer conv2
I0427 10:05:16.802086 1952608256 net.cpp:425] conv2 <- norm1
I0427 10:05:16.802098 1952608256 net.cpp:399] conv2 -> conv2
I0427 10:05:16.807126 1952608256 net.cpp:141] Setting up conv2
I0427 10:05:16.807194 1952608256 net.cpp:148] Top shape: 50 256 31 31 (12300800)
I0427 10:05:16.807204 1952608256 net.cpp:156] Memory required for data: 273037400
I0427 10:05:16.807227 1952608256 layer_factory.hpp:77] Creating layer relu2
I0427 10:05:16.807250 1952608256 net.cpp:91] Creating Layer relu2
I0427 10:05:16.807258 1952608256 net.cpp:425] relu2 <- conv2
I0427 10:05:16.807274 1952608256 net.cpp:386] relu2 -> conv2 (in-place)
I0427 10:05:16.807297 1952608256 net.cpp:141] Setting up relu2
I0427 10:05:16.807317 1952608256 net.cpp:148] Top shape: 50 256 31 31 (12300800)
I0427 10:05:16.807338 1952608256 net.cpp:156] Memory required for data: 322240600
I0427 10:05:16.807348 1952608256 layer_factory.hpp:77] Creating layer pool2
I0427 10:05:16.807368 1952608256 net.cpp:91] Creating Layer pool2
I0427 10:05:16.807381 1952608256 net.cpp:425] pool2 <- conv2
I0427 10:05:16.807412 1952608256 net.cpp:399] pool2 -> pool2
I0427 10:05:16.807456 1952608256 net.cpp:141] Setting up pool2
I0427 10:05:16.807469 1952608256 net.cpp:148] Top shape: 50 256 15 15 (2880000)
I0427 10:05:16.807482 1952608256 net.cpp:156] Memory required for data: 333760600
I0427 10:05:16.807493 1952608256 layer_factory.hpp:77] Creating layer norm2
I0427 10:05:16.807523 1952608256 net.cpp:91] Creating Layer norm2
I0427 10:05:16.807538 1952608256 net.cpp:425] norm2 <- pool2
I0427 10:05:16.807550 1952608256 net.cpp:399] norm2 -> norm2
I0427 10:05:16.807572 1952608256 net.cpp:141] Setting up norm2
I0427 10:05:16.807586 1952608256 net.cpp:148] Top shape: 50 256 15 15 (2880000)
I0427 10:05:16.807643 1952608256 net.cpp:156] Memory required for data: 345280600
I0427 10:05:16.807653 1952608256 layer_factory.hpp:77] Creating layer conv3
I0427 10:05:16.807678 1952608256 net.cpp:91] Creating Layer conv3
I0427 10:05:16.807685 1952608256 net.cpp:425] conv3 <- norm2
I0427 10:05:16.807713 1952608256 net.cpp:399] conv3 -> conv3
I0427 10:05:16.819919 1952608256 net.cpp:141] Setting up conv3
I0427 10:05:16.819946 1952608256 net.cpp:148] Top shape: 50 384 15 15 (4320000)
I0427 10:05:16.819954 1952608256 net.cpp:156] Memory required for data: 362560600
I0427 10:05:16.819970 1952608256 layer_factory.hpp:77] Creating layer relu3
I0427 10:05:16.819984 1952608256 net.cpp:91] Creating Layer relu3
I0427 10:05:16.819993 1952608256 net.cpp:425] relu3 <- conv3
I0427 10:05:16.820000 1952608256 net.cpp:386] relu3 -> conv3 (in-place)
I0427 10:05:16.820013 1952608256 net.cpp:141] Setting up relu3
I0427 10:05:16.820019 1952608256 net.cpp:148] Top shape: 50 384 15 15 (4320000)
I0427 10:05:16.820056 1952608256 net.cpp:156] Memory required for data: 379840600
I0427 10:05:16.820062 1952608256 layer_factory.hpp:77] Creating layer conv4
I0427 10:05:16.820076 1952608256 net.cpp:91] Creating Layer conv4
I0427 10:05:16.820094 1952608256 net.cpp:425] conv4 <- conv3
I0427 10:05:16.820112 1952608256 net.cpp:399] conv4 -> conv4
I0427 10:05:16.829027 1952608256 net.cpp:141] Setting up conv4
I0427 10:05:16.829059 1952608256 net.cpp:148] Top shape: 50 384 15 15 (4320000)
I0427 10:05:16.829069 1952608256 net.cpp:156] Memory required for data: 397120600
I0427 10:05:16.829083 1952608256 layer_factory.hpp:77] Creating layer relu4
I0427 10:05:16.829097 1952608256 net.cpp:91] Creating Layer relu4
I0427 10:05:16.829107 1952608256 net.cpp:425] relu4 <- conv4
I0427 10:05:16.829116 1952608256 net.cpp:386] relu4 -> conv4 (in-place)
I0427 10:05:16.829130 1952608256 net.cpp:141] Setting up relu4
I0427 10:05:16.829138 1952608256 net.cpp:148] Top shape: 50 384 15 15 (4320000)
I0427 10:05:16.829146 1952608256 net.cpp:156] Memory required for data: 414400600
I0427 10:05:16.829152 1952608256 layer_factory.hpp:77] Creating layer conv5
I0427 10:05:16.829171 1952608256 net.cpp:91] Creating Layer conv5
I0427 10:05:16.829179 1952608256 net.cpp:425] conv5 <- conv4
I0427 10:05:16.829190 1952608256 net.cpp:399] conv5 -> conv5
I0427 10:05:16.835952 1952608256 net.cpp:141] Setting up conv5
I0427 10:05:16.835983 1952608256 net.cpp:148] Top shape: 50 256 15 15 (2880000)
I0427 10:05:16.835994 1952608256 net.cpp:156] Memory required for data: 425920600
I0427 10:05:16.836017 1952608256 layer_factory.hpp:77] Creating layer relu5
I0427 10:05:16.836031 1952608256 net.cpp:91] Creating Layer relu5
I0427 10:05:16.836038 1952608256 net.cpp:425] relu5 <- conv5
I0427 10:05:16.836047 1952608256 net.cpp:386] relu5 -> conv5 (in-place)
I0427 10:05:16.836060 1952608256 net.cpp:141] Setting up relu5
I0427 10:05:16.836066 1952608256 net.cpp:148] Top shape: 50 256 15 15 (2880000)
I0427 10:05:16.836074 1952608256 net.cpp:156] Memory required for data: 437440600
I0427 10:05:16.836081 1952608256 layer_factory.hpp:77] Creating layer pool5
I0427 10:05:16.836092 1952608256 net.cpp:91] Creating Layer pool5
I0427 10:05:16.836099 1952608256 net.cpp:425] pool5 <- conv5
I0427 10:05:16.836109 1952608256 net.cpp:399] pool5 -> pool5
I0427 10:05:16.836134 1952608256 net.cpp:141] Setting up pool5
I0427 10:05:16.836141 1952608256 net.cpp:148] Top shape: 50 256 7 7 (627200)
I0427 10:05:16.836150 1952608256 net.cpp:156] Memory required for data: 439949400
I0427 10:05:16.836156 1952608256 layer_factory.hpp:77] Creating layer fc6_sunset
I0427 10:05:16.836168 1952608256 net.cpp:91] Creating Layer fc6_sunset
I0427 10:05:16.836175 1952608256 net.cpp:425] fc6_sunset <- pool5
I0427 10:05:16.836185 1952608256 net.cpp:399] fc6_sunset -> fc6_sunset
I0427 10:05:17.448163 1952608256 net.cpp:141] Setting up fc6_sunset
I0427 10:05:17.448189 1952608256 net.cpp:148] Top shape: 50 4096 (204800)
I0427 10:05:17.448196 1952608256 net.cpp:156] Memory required for data: 440768600
I0427 10:05:17.448206 1952608256 layer_factory.hpp:77] Creating layer relu6
I0427 10:05:17.448225 1952608256 net.cpp:91] Creating Layer relu6
I0427 10:05:17.448230 1952608256 net.cpp:425] relu6 <- fc6_sunset
I0427 10:05:17.448240 1952608256 net.cpp:386] relu6 -> fc6_sunset (in-place)
I0427 10:05:17.448256 1952608256 net.cpp:141] Setting up relu6
I0427 10:05:17.448263 1952608256 net.cpp:148] Top shape: 50 4096 (204800)
I0427 10:05:17.448271 1952608256 net.cpp:156] Memory required for data: 441587800
I0427 10:05:17.448278 1952608256 layer_factory.hpp:77] Creating layer drop6
I0427 10:05:17.448290 1952608256 net.cpp:91] Creating Layer drop6
I0427 10:05:17.448297 1952608256 net.cpp:425] drop6 <- fc6_sunset
I0427 10:05:17.448302 1952608256 net.cpp:386] drop6 -> fc6_sunset (in-place)
I0427 10:05:17.448319 1952608256 net.cpp:141] Setting up drop6
I0427 10:05:17.448323 1952608256 net.cpp:148] Top shape: 50 4096 (204800)
I0427 10:05:17.448328 1952608256 net.cpp:156] Memory required for data: 442407000
I0427 10:05:17.448371 1952608256 layer_factory.hpp:77] Creating layer fc7
I0427 10:05:17.448387 1952608256 net.cpp:91] Creating Layer fc7
I0427 10:05:17.448393 1952608256 net.cpp:425] fc7 <- fc6_sunset
I0427 10:05:17.448405 1952608256 net.cpp:399] fc7 -> fc7
I0427 10:05:17.638972 1952608256 net.cpp:141] Setting up fc7
I0427 10:05:17.639005 1952608256 net.cpp:148] Top shape: 50 4096 (204800)
I0427 10:05:17.639011 1952608256 net.cpp:156] Memory required for data: 443226200
I0427 10:05:17.639019 1952608256 layer_factory.hpp:77] Creating layer relu7
I0427 10:05:17.639080 1952608256 net.cpp:91] Creating Layer relu7
I0427 10:05:17.639096 1952608256 net.cpp:425] relu7 <- fc7
I0427 10:05:17.639103 1952608256 net.cpp:386] relu7 -> fc7 (in-place)
I0427 10:05:17.639112 1952608256 net.cpp:141] Setting up relu7
I0427 10:05:17.639117 1952608256 net.cpp:148] Top shape: 50 4096 (204800)
I0427 10:05:17.639122 1952608256 net.cpp:156] Memory required for data: 444045400
I0427 10:05:17.639125 1952608256 layer_factory.hpp:77] Creating layer drop7
I0427 10:05:17.639132 1952608256 net.cpp:91] Creating Layer drop7
I0427 10:05:17.639134 1952608256 net.cpp:425] drop7 <- fc7
I0427 10:05:17.639139 1952608256 net.cpp:386] drop7 -> fc7 (in-place)
I0427 10:05:17.639147 1952608256 net.cpp:141] Setting up drop7
I0427 10:05:17.639150 1952608256 net.cpp:148] Top shape: 50 4096 (204800)
I0427 10:05:17.639154 1952608256 net.cpp:156] Memory required for data: 444864600
I0427 10:05:17.639158 1952608256 layer_factory.hpp:77] Creating layer fc8_sunset
I0427 10:05:17.639164 1952608256 net.cpp:91] Creating Layer fc8_sunset
I0427 10:05:17.639168 1952608256 net.cpp:425] fc8_sunset <- fc7
I0427 10:05:17.639173 1952608256 net.cpp:399] fc8_sunset -> fc8_sunset
I0427 10:05:17.639245 1952608256 net.cpp:141] Setting up fc8_sunset
I0427 10:05:17.639255 1952608256 net.cpp:148] Top shape: 50 2 (100)
I0427 10:05:17.639259 1952608256 net.cpp:156] Memory required for data: 444865000
I0427 10:05:17.639266 1952608256 layer_factory.hpp:77] Creating layer fc8_sunset_fc8_sunset_0_split
I0427 10:05:17.639272 1952608256 net.cpp:91] Creating Layer fc8_sunset_fc8_sunset_0_split
I0427 10:05:17.639277 1952608256 net.cpp:425] fc8_sunset_fc8_sunset_0_split <- fc8_sunset
I0427 10:05:17.639286 1952608256 net.cpp:399] fc8_sunset_fc8_sunset_0_split -> fc8_sunset_fc8_sunset_0_split_0
I0427 10:05:17.639297 1952608256 net.cpp:399] fc8_sunset_fc8_sunset_0_split -> fc8_sunset_fc8_sunset_0_split_1
I0427 10:05:17.639319 1952608256 net.cpp:141] Setting up fc8_sunset_fc8_sunset_0_split
I0427 10:05:17.639327 1952608256 net.cpp:148] Top shape: 50 2 (100)
I0427 10:05:17.639331 1952608256 net.cpp:148] Top shape: 50 2 (100)
I0427 10:05:17.639335 1952608256 net.cpp:156] Memory required for data: 444865800
I0427 10:05:17.639339 1952608256 layer_factory.hpp:77] Creating layer loss
I0427 10:05:17.639353 1952608256 net.cpp:91] Creating Layer loss
I0427 10:05:17.639359 1952608256 net.cpp:425] loss <- fc8_sunset_fc8_sunset_0_split_0
I0427 10:05:17.639364 1952608256 net.cpp:425] loss <- label_data_1_split_0
I0427 10:05:17.639381 1952608256 net.cpp:399] loss -> loss
…
I0427 10:05:17.640080 1952608256 solver.cpp:181] Creating test net (#0) specified by test_net file: /Users/tianchuliang/documents/gt_acad/7616spring16/hwsoln/hw4/nets/my_sunset_net/my_sunset_net_test_cmdline.prototxt
I0427 10:05:17.640128 1952608256 net.cpp:49] Initializing net from parameters: 
state {
  phase: TEST
}
layer {
  name: "data"
  type: "Data"
  top: "data"
  top: "label"
  transform_param {
    mirror: false
    crop_size: 256
    mean_file: "/Users/tianchuliang/documents/gt_acad/7616spring16/hwsoln/hw4/data/Sunset/Train/sunset_train_mean.binaryproto"
  }
  data_param {
    source: "/Users/tianchuliang/documents/gt_acad/7616spring16/hwsoln/hw4/data/Sunset/Test/sunset_test_lmdb"
    batch_size: 50
    backend: LMDB
  }
}
layer {
  name: "conv1"
  type: "Convolution"
  bottom: "data"
  top: "conv1"
  param {
    lr_mult: 0
  }
  param {
    lr_mult: 0
  }
  convolution_param {
    num_output: 96
    pad: 0
    kernel_size: 11
    group: 1
    stride: 4
    weight_filler {
      type: "gaussian"
      std: 0.01
    }
    bias_filler {
      type: "constant"
      value: 0.1
    }
  }
}
layer {
  name: "relu1"
  type: "ReLU"
  bottom: "conv1"
  top: "conv1"
}
layer {
  name: "pool1"
  type: "Pooling"
  bottom: "conv1"
  top: "pool1"
  pooling_param {
    pool: MAX
    kernel_size: 3
    stride: 2
  }
}
layer {
  name: "norm1"
  type: "LRN"
  bottom: "pool1"
  top: "norm1"
  lrn_param {
    local_size: 5
    alpha: 0.0001
    beta: 0.75
  }
}
layer {
  name: "conv2"
  type: "Convolution"
  bottom: "norm1"
  top: "conv2"
  param {
    lr_mult: 0
  }
  param {
    lr_mult: 0
  }
  convolution_param {
    num_output: 256
    pad: 2
    kernel_size: 5
    group: 2
    stride: 1
    weight_filler {
      type: "gaussian"
      std: 0.01
    }
    bias_filler {
      type: "constant"
      value: 0.1
    }
  }
}
layer {
  name: "relu2"
  type: "ReLU"
  bottom: "conv2"
  top: "conv2"
}
layer {
  name: "pool2"
  type: "Pooling"
  bottom: "conv2"
  top: "pool2"
  pooling_param {
    pool: MAX
    kernel_size: 3
    stride: 2
  }
}
layer {
  name: "norm2"
  type: "LRN"
  bottom: "pool2"
  top: "norm2"
  lrn_param {
    local_size: 5
    alpha: 0.0001
    beta: 0.75
  }
}
layer {
  name: "conv3"
  type: "Convolution"
  bottom: "norm2"
  top: "conv3"
  param {
    lr_mult: 0
  }
  param {
    lr_mult: 0
  }
  convolution_param {
    num_output: 384
    pad: 1
    kernel_size: 3
    group: 1
    stride: 1
    weight_filler {
      type: "gaussian"
      std: 0.01
    }
    bias_filler {
      type: "constant"
      value: 0.1
    }
  }
}
layer {
  name: "relu3"
  type: "ReLU"
  bottom: "conv3"
  top: "conv3"
}
layer {
  name: "conv4"
  type: "Convolution"
  bottom: "conv3"
  top: "conv4"
  param {
    lr_mult: 0
  }
  param {
    lr_mult: 0
  }
  convolution_param {
    num_output: 384
    pad: 1
    kernel_size: 3
    group: 2
    stride: 1
    weight_filler {
      type: "gaussian"
      std: 0.01
    }
    bias_filler {
      type: "constant"
      value: 0.1
    }
  }
}
layer {
  name: "relu4"
  type: "ReLU"
  bottom: "conv4"
  top: "conv4"
}
layer {
  name: "conv5"
  type: "Convolution"
  bottom: "conv4"
  top: "conv5"
  param {
    lr_mult: 0
  }
  param {
    lr_mult: 0
  }
  convolution_param {
    num_output: 256
    pad: 1
    kernel_size: 3
    group: 2
    stride: 1
    weight_filler {
      type: "gaussian"
      std: 0.01
    }
    bias_filler {
      type: "constant"
      value: 0.1
    }
  }
}
layer {
  name: "relu5"
  type: "ReLU"
  bottom: "conv5"
  top: "conv5"
}
layer {
  name: "pool5"
  type: "Pooling"
  bottom: "conv5"
  top: "pool5"
  pooling_param {
    pool: MAX
    kernel_size: 3
    stride: 2
  }
}
layer {
  name: "fc6_sunset"
  type: "InnerProduct"
  bottom: "pool5"
  top: "fc6_sunset"
  param {
    lr_mult: 1
    decay_mult: 1
  }
  param {
    lr_mult: 2
    decay_mult: 0
  }
  inner_product_param {
    num_output: 4096
    weight_filler {
      type: "gaussian"
      std: 0.005
    }
    bias_filler {
      type: "constant"
      value: 0.1
    }
  }
}
layer {
  name: "relu6"
  type: "ReLU"
  bottom: "fc6_sunset"
  top: "fc6_sunset"
}
layer {
  name: "fc7"
  type: "InnerProduct"
  bottom: "fc6_sunset"
  top: "fc7"
  param {
    lr_mult: 1
    decay_mult: 1
  }
  param {
    lr_mult: 2
    decay_mult: 0
  }
  inner_product_param {
    num_output: 4096
    weight_filler {
      type: "gaussian"
      std: 0.005
    }
    bias_filler {
      type: "constant"
      value: 0.1
    }
  }
}
layer {
  name: "relu7"
  type: "ReLU"
  bottom: "fc7"
  top: "fc7"
}
layer {
  name: "fc8_sunset"
  type: "InnerProduct"
  bottom: "fc7"
  top: "fc8_sunset"
  param {
    lr_mult: 1
    decay_mult: 1
  }
  param {
    lr_mult: 2
    decay_mult: 0
  }
  inner_product_param {
    num_output: 2
  }
}
layer {
  name: "probs"
  type: "Softmax"
  bottom: "fc8_sunset"
  top: "probs"
}
layer {
  name: "loss"
  type: "SoftmaxWithLoss"
  bottom: "fc8_sunset"
  bottom: "label"
  top: "loss"
}
layer {
  name: "acc"
  type: "Accuracy"
  bottom: "fc8_sunset"
  bottom: "label"
  top: "acc"
}
I0427 10:05:17.640439 1952608256 layer_factory.hpp:77] Creating layer data
I0427 10:05:17.640522 1952608256 net.cpp:91] Creating Layer data
I0427 10:05:17.640533 1952608256 net.cpp:399] data -> data
I0427 10:05:17.640552 1952608256 net.cpp:399] data -> label
I0427 10:05:17.640564 1952608256 data_transformer.cpp:25] Loading mean file from: /Users/tianchuliang/documents/gt_acad/7616spring16/hwsoln/hw4/data/Sunset/Train/sunset_train_mean.binaryproto
I0427 10:05:17.641819 1601536 db_lmdb.cpp:38] Opened lmdb /Users/tianchuliang/documents/gt_acad/7616spring16/hwsoln/hw4/data/Sunset/Test/sunset_test_lmdb
I0427 10:05:17.643065 1952608256 data_layer.cpp:41] output data size: 50,3,256,256
I0427 10:05:17.695858 1952608256 net.cpp:141] Setting up data
I0427 10:05:17.695924 1952608256 net.cpp:148] Top shape: 50 3 256 256 (9830400)
I0427 10:05:17.695950 1952608256 net.cpp:148] Top shape: 50 (50)
I0427 10:05:17.695961 1952608256 net.cpp:156] Memory required for data: 39321800
I0427 10:05:17.695971 1952608256 layer_factory.hpp:77] Creating layer label_data_1_split
I0427 10:05:17.695987 1952608256 net.cpp:91] Creating Layer label_data_1_split
I0427 10:05:17.695996 1952608256 net.cpp:425] label_data_1_split <- label
I0427 10:05:17.696010 1952608256 net.cpp:399] label_data_1_split -> label_data_1_split_0
I0427 10:05:17.696024 1952608256 net.cpp:399] label_data_1_split -> label_data_1_split_1
I0427 10:05:17.696038 1952608256 net.cpp:141] Setting up label_data_1_split
I0427 10:05:17.696046 1952608256 net.cpp:148] Top shape: 50 (50)
I0427 10:05:17.696053 1952608256 net.cpp:148] Top shape: 50 (50)
I0427 10:05:17.696061 1952608256 net.cpp:156] Memory required for data: 39322200
I0427 10:05:17.696068 1952608256 layer_factory.hpp:77] Creating layer conv1
I0427 10:05:17.696087 1952608256 net.cpp:91] Creating Layer conv1
I0427 10:05:17.696095 1952608256 net.cpp:425] conv1 <- data
I0427 10:05:17.696106 1952608256 net.cpp:399] conv1 -> conv1
I0427 10:05:17.696995 1952608256 net.cpp:141] Setting up conv1
I0427 10:05:17.697023 1952608256 net.cpp:148] Top shape: 50 96 62 62 (18451200)
I0427 10:05:17.697036 1952608256 net.cpp:156] Memory required for data: 113127000
I0427 10:05:17.697051 1952608256 layer_factory.hpp:77] Creating layer relu1
I0427 10:05:17.697064 1952608256 net.cpp:91] Creating Layer relu1
I0427 10:05:17.697072 1952608256 net.cpp:425] relu1 <- conv1
I0427 10:05:17.697079 1952608256 net.cpp:386] relu1 -> conv1 (in-place)
I0427 10:05:17.697101 1952608256 net.cpp:141] Setting up relu1
I0427 10:05:17.697110 1952608256 net.cpp:148] Top shape: 50 96 62 62 (18451200)
I0427 10:05:17.697118 1952608256 net.cpp:156] Memory required for data: 186931800
I0427 10:05:17.697125 1952608256 layer_factory.hpp:77] Creating layer pool1
I0427 10:05:17.697149 1952608256 net.cpp:91] Creating Layer pool1
I0427 10:05:17.697156 1952608256 net.cpp:425] pool1 <- conv1
I0427 10:05:17.697166 1952608256 net.cpp:399] pool1 -> pool1
I0427 10:05:17.697182 1952608256 net.cpp:141] Setting up pool1
I0427 10:05:17.697190 1952608256 net.cpp:148] Top shape: 50 96 31 31 (4612800)
I0427 10:05:17.697197 1952608256 net.cpp:156] Memory required for data: 205383000
I0427 10:05:17.697203 1952608256 layer_factory.hpp:77] Creating layer norm1
I0427 10:05:17.697213 1952608256 net.cpp:91] Creating Layer norm1
I0427 10:05:17.697219 1952608256 net.cpp:425] norm1 <- pool1
I0427 10:05:17.697228 1952608256 net.cpp:399] norm1 -> norm1
I0427 10:05:17.697242 1952608256 net.cpp:141] Setting up norm1
I0427 10:05:17.697250 1952608256 net.cpp:148] Top shape: 50 96 31 31 (4612800)
I0427 10:05:17.697258 1952608256 net.cpp:156] Memory required for data: 223834200
I0427 10:05:17.697265 1952608256 layer_factory.hpp:77] Creating layer conv2
I0427 10:05:17.697284 1952608256 net.cpp:91] Creating Layer conv2
I0427 10:05:17.697293 1952608256 net.cpp:425] conv2 <- norm1
I0427 10:05:17.697309 1952608256 net.cpp:399] conv2 -> conv2
I0427 10:05:17.701797 1952608256 net.cpp:141] Setting up conv2
I0427 10:05:17.701822 1952608256 net.cpp:148] Top shape: 50 256 31 31 (12300800)
I0427 10:05:17.701828 1952608256 net.cpp:156] Memory required for data: 273037400
I0427 10:05:17.701838 1952608256 layer_factory.hpp:77] Creating layer relu2
I0427 10:05:17.701853 1952608256 net.cpp:91] Creating Layer relu2
I0427 10:05:17.701860 1952608256 net.cpp:425] relu2 <- conv2
I0427 10:05:17.701869 1952608256 net.cpp:386] relu2 -> conv2 (in-place)
I0427 10:05:17.701880 1952608256 net.cpp:141] Setting up relu2
I0427 10:05:17.701886 1952608256 net.cpp:148] Top shape: 50 256 31 31 (12300800)
I0427 10:05:17.701917 1952608256 net.cpp:156] Memory required for data: 322240600
I0427 10:05:17.701925 1952608256 layer_factory.hpp:77] Creating layer pool2
I0427 10:05:17.701985 1952608256 net.cpp:91] Creating Layer pool2
I0427 10:05:17.701995 1952608256 net.cpp:425] pool2 <- conv2
I0427 10:05:17.702005 1952608256 net.cpp:399] pool2 -> pool2
I0427 10:05:17.702028 1952608256 net.cpp:141] Setting up pool2
I0427 10:05:17.702035 1952608256 net.cpp:148] Top shape: 50 256 15 15 (2880000)
I0427 10:05:17.702044 1952608256 net.cpp:156] Memory required for data: 333760600
I0427 10:05:17.702051 1952608256 layer_factory.hpp:77] Creating layer norm2
I0427 10:05:17.702064 1952608256 net.cpp:91] Creating Layer norm2
I0427 10:05:17.702069 1952608256 net.cpp:425] norm2 <- pool2
I0427 10:05:17.702080 1952608256 net.cpp:399] norm2 -> norm2
I0427 10:05:17.702093 1952608256 net.cpp:141] Setting up norm2
I0427 10:05:17.702100 1952608256 net.cpp:148] Top shape: 50 256 15 15 (2880000)
I0427 10:05:17.702107 1952608256 net.cpp:156] Memory required for data: 345280600
I0427 10:05:17.702113 1952608256 layer_factory.hpp:77] Creating layer conv3
I0427 10:05:17.702126 1952608256 net.cpp:91] Creating Layer conv3
I0427 10:05:17.702132 1952608256 net.cpp:425] conv3 <- norm2
I0427 10:05:17.702142 1952608256 net.cpp:399] conv3 -> conv3
I0427 10:05:17.713995 1952608256 net.cpp:141] Setting up conv3
I0427 10:05:17.714017 1952608256 net.cpp:148] Top shape: 50 384 15 15 (4320000)
I0427 10:05:17.714027 1952608256 net.cpp:156] Memory required for data: 362560600
I0427 10:05:17.714043 1952608256 layer_factory.hpp:77] Creating layer relu3
I0427 10:05:17.714056 1952608256 net.cpp:91] Creating Layer relu3
I0427 10:05:17.714063 1952608256 net.cpp:425] relu3 <- conv3
I0427 10:05:17.714072 1952608256 net.cpp:386] relu3 -> conv3 (in-place)
I0427 10:05:17.714083 1952608256 net.cpp:141] Setting up relu3
I0427 10:05:17.714089 1952608256 net.cpp:148] Top shape: 50 384 15 15 (4320000)
I0427 10:05:17.714097 1952608256 net.cpp:156] Memory required for data: 379840600
I0427 10:05:17.714103 1952608256 layer_factory.hpp:77] Creating layer conv4
I0427 10:05:17.714117 1952608256 net.cpp:91] Creating Layer conv4
I0427 10:05:17.714121 1952608256 net.cpp:425] conv4 <- conv3
I0427 10:05:17.714130 1952608256 net.cpp:399] conv4 -> conv4
I0427 10:05:17.722846 1952608256 net.cpp:141] Setting up conv4
I0427 10:05:17.722872 1952608256 net.cpp:148] Top shape: 50 384 15 15 (4320000)
I0427 10:05:17.722877 1952608256 net.cpp:156] Memory required for data: 397120600
I0427 10:05:17.722887 1952608256 layer_factory.hpp:77] Creating layer relu4
I0427 10:05:17.722898 1952608256 net.cpp:91] Creating Layer relu4
I0427 10:05:17.722901 1952608256 net.cpp:425] relu4 <- conv4
I0427 10:05:17.722908 1952608256 net.cpp:386] relu4 -> conv4 (in-place)
I0427 10:05:17.722915 1952608256 net.cpp:141] Setting up relu4
I0427 10:05:17.722918 1952608256 net.cpp:148] Top shape: 50 384 15 15 (4320000)
I0427 10:05:17.722923 1952608256 net.cpp:156] Memory required for data: 414400600
I0427 10:05:17.722926 1952608256 layer_factory.hpp:77] Creating layer conv5
I0427 10:05:17.722936 1952608256 net.cpp:91] Creating Layer conv5
I0427 10:05:17.722939 1952608256 net.cpp:425] conv5 <- conv4
I0427 10:05:17.722945 1952608256 net.cpp:399] conv5 -> conv5
I0427 10:05:17.728874 1952608256 net.cpp:141] Setting up conv5
I0427 10:05:17.728898 1952608256 net.cpp:148] Top shape: 50 256 15 15 (2880000)
I0427 10:05:17.728905 1952608256 net.cpp:156] Memory required for data: 425920600
I0427 10:05:17.728919 1952608256 layer_factory.hpp:77] Creating layer relu5
I0427 10:05:17.728938 1952608256 net.cpp:91] Creating Layer relu5
I0427 10:05:17.728945 1952608256 net.cpp:425] relu5 <- conv5
I0427 10:05:17.728953 1952608256 net.cpp:386] relu5 -> conv5 (in-place)
I0427 10:05:17.728966 1952608256 net.cpp:141] Setting up relu5
I0427 10:05:17.728972 1952608256 net.cpp:148] Top shape: 50 256 15 15 (2880000)
I0427 10:05:17.728981 1952608256 net.cpp:156] Memory required for data: 437440600
I0427 10:05:17.728988 1952608256 layer_factory.hpp:77] Creating layer pool5
I0427 10:05:17.728999 1952608256 net.cpp:91] Creating Layer pool5
I0427 10:05:17.729007 1952608256 net.cpp:425] pool5 <- conv5
I0427 10:05:17.729043 1952608256 net.cpp:399] pool5 -> pool5
I0427 10:05:17.729096 1952608256 net.cpp:141] Setting up pool5
I0427 10:05:17.729104 1952608256 net.cpp:148] Top shape: 50 256 7 7 (627200)
I0427 10:05:17.729112 1952608256 net.cpp:156] Memory required for data: 439949400
I0427 10:05:17.729120 1952608256 layer_factory.hpp:77] Creating layer fc6_sunset
I0427 10:05:17.729130 1952608256 net.cpp:91] Creating Layer fc6_sunset
I0427 10:05:17.729137 1952608256 net.cpp:425] fc6_sunset <- pool5
I0427 10:05:17.729146 1952608256 net.cpp:399] fc6_sunset -> fc6_sunset
I0427 10:05:18.312230 1952608256 net.cpp:141] Setting up fc6_sunset
I0427 10:05:18.312253 1952608256 net.cpp:148] Top shape: 50 4096 (204800)
I0427 10:05:18.312259 1952608256 net.cpp:156] Memory required for data: 440768600
I0427 10:05:18.312266 1952608256 layer_factory.hpp:77] Creating layer relu6
I0427 10:05:18.312276 1952608256 net.cpp:91] Creating Layer relu6
I0427 10:05:18.312281 1952608256 net.cpp:425] relu6 <- fc6_sunset
I0427 10:05:18.312286 1952608256 net.cpp:386] relu6 -> fc6_sunset (in-place)
I0427 10:05:18.312295 1952608256 net.cpp:141] Setting up relu6
I0427 10:05:18.312314 1952608256 net.cpp:148] Top shape: 50 4096 (204800)
I0427 10:05:18.312326 1952608256 net.cpp:156] Memory required for data: 441587800
I0427 10:05:18.312332 1952608256 layer_factory.hpp:77] Creating layer fc7
I0427 10:05:18.312341 1952608256 net.cpp:91] Creating Layer fc7
I0427 10:05:18.312345 1952608256 net.cpp:425] fc7 <- fc6_sunset
I0427 10:05:18.312351 1952608256 net.cpp:399] fc7 -> fc7
I0427 10:05:18.508733 1952608256 net.cpp:141] Setting up fc7
I0427 10:05:18.508759 1952608256 net.cpp:148] Top shape: 50 4096 (204800)
I0427 10:05:18.508766 1952608256 net.cpp:156] Memory required for data: 442407000
I0427 10:05:18.508775 1952608256 layer_factory.hpp:77] Creating layer relu7
I0427 10:05:18.508788 1952608256 net.cpp:91] Creating Layer relu7
I0427 10:05:18.508795 1952608256 net.cpp:425] relu7 <- fc7
I0427 10:05:18.508802 1952608256 net.cpp:386] relu7 -> fc7 (in-place)
I0427 10:05:18.508813 1952608256 net.cpp:141] Setting up relu7
I0427 10:05:18.508818 1952608256 net.cpp:148] Top shape: 50 4096 (204800)
I0427 10:05:18.508842 1952608256 net.cpp:156] Memory required for data: 443226200
I0427 10:05:18.508849 1952608256 layer_factory.hpp:77] Creating layer fc8_sunset
I0427 10:05:18.508857 1952608256 net.cpp:91] Creating Layer fc8_sunset
I0427 10:05:18.508862 1952608256 net.cpp:425] fc8_sunset <- fc7
I0427 10:05:18.508868 1952608256 net.cpp:399] fc8_sunset -> fc8_sunset
I0427 10:05:18.508909 1952608256 net.cpp:141] Setting up fc8_sunset
I0427 10:05:18.508915 1952608256 net.cpp:148] Top shape: 50 2 (100)
I0427 10:05:18.508922 1952608256 net.cpp:156] Memory required for data: 443226600
I0427 10:05:18.508931 1952608256 layer_factory.hpp:77] Creating layer fc8_sunset_fc8_sunset_0_split
I0427 10:05:18.508942 1952608256 net.cpp:91] Creating Layer fc8_sunset_fc8_sunset_0_split
I0427 10:05:18.508949 1952608256 net.cpp:425] fc8_sunset_fc8_sunset_0_split <- fc8_sunset
I0427 10:05:18.508957 1952608256 net.cpp:399] fc8_sunset_fc8_sunset_0_split -> fc8_sunset_fc8_sunset_0_split_0
I0427 10:05:18.508971 1952608256 net.cpp:399] fc8_sunset_fc8_sunset_0_split -> fc8_sunset_fc8_sunset_0_split_1
I0427 10:05:18.508981 1952608256 net.cpp:399] fc8_sunset_fc8_sunset_0_split -> fc8_sunset_fc8_sunset_0_split_2
I0427 10:05:18.508996 1952608256 net.cpp:141] Setting up fc8_sunset_fc8_sunset_0_split
I0427 10:05:18.509003 1952608256 net.cpp:148] Top shape: 50 2 (100)
I0427 10:05:18.509027 1952608256 net.cpp:148] Top shape: 50 2 (100)
I0427 10:05:18.509032 1952608256 net.cpp:148] Top shape: 50 2 (100)
I0427 10:05:18.509037 1952608256 net.cpp:156] Memory required for data: 443227800
I0427 10:05:18.509042 1952608256 layer_factory.hpp:77] Creating layer probs
I0427 10:05:18.509049 1952608256 net.cpp:91] Creating Layer probs
I0427 10:05:18.509054 1952608256 net.cpp:425] probs <- fc8_sunset_fc8_sunset_0_split_0
I0427 10:05:18.509062 1952608256 net.cpp:399] probs -> probs
I0427 10:05:18.509073 1952608256 net.cpp:141] Setting up probs
I0427 10:05:18.509099 1952608256 net.cpp:148] Top shape: 50 2 (100)
I0427 10:05:18.509104 1952608256 net.cpp:156] Memory required for data: 443228200
I0427 10:05:18.509109 1952608256 layer_factory.hpp:77] Creating layer loss
I0427 10:05:18.509114 1952608256 net.cpp:91] Creating Layer loss
I0427 10:05:18.509117 1952608256 net.cpp:425] loss <- fc8_sunset_fc8_sunset_0_split_1
I0427 10:05:18.509122 1952608256 net.cpp:425] loss <- label_data_1_split_0
I0427 10:05:18.509127 1952608256 net.cpp:399] loss -> loss
…
