…
I0427 13:21:47.444720 1952608256 solver.cpp:81] Creating training net from train_net file: /Users/tianchuliang/documents/gt_acad/7616spring16/hwsoln/hw4/nets/my_sunset_net/my_sunset_net_train_aug_cmdline.prototxt
I0427 13:21:47.445201 1952608256 net.cpp:49] Initializing net from parameters: 
state {
  phase: TRAIN
}
layer {
  name: "data"
  type: "Data"
  top: "data"
  top: "label"
  transform_param {
    mirror: false
    crop_size: 256
    mean_file: "/Users/tianchuliang/documents/gt_acad/7616spring16/hwsoln/hw4/data/Sunset/Train_aug/sunset_train_aug_mean.binaryproto"
  }
  data_param {
    source: "/Users/tianchuliang/documents/gt_acad/7616spring16/hwsoln/hw4/data/Sunset/Train_aug/sunset_train_lmdb_aug"
    batch_size: 250
    backend: LMDB
  }
}
layer {
  name: "conv1"
  type: "Convolution"
  bottom: "data"
  top: "conv1"
  param {
    lr_mult: 0
  }
  param {
    lr_mult: 0
  }
  convolution_param {
    num_output: 96
    pad: 0
    kernel_size: 11
    group: 1
    stride: 4
    weight_filler {
      type: "gaussian"
      std: 0.01
    }
    bias_filler {
      type: "constant"
      value: 0.1
    }
  }
}
layer {
  name: "relu1"
  type: "ReLU"
  bottom: "conv1"
  top: "conv1"
}
layer {
  name: "pool1"
  type: "Pooling"
  bottom: "conv1"
  top: "pool1"
  pooling_param {
    pool: MAX
    kernel_size: 3
    stride: 2
  }
}
layer {
  name: "norm1"
  type: "LRN"
  bottom: "pool1"
  top: "norm1"
  lrn_param {
    local_size: 5
    alpha: 0.0001
    beta: 0.75
  }
}
layer {
  name: "conv2"
  type: "Convolution"
  bottom: "norm1"
  top: "conv2"
  param {
    lr_mult: 0
  }
  param {
    lr_mult: 0
  }
  convolution_param {
    num_output: 256
    pad: 2
    kernel_size: 5
    group: 2
    stride: 1
    weight_filler {
      type: "gaussian"
      std: 0.01
    }
    bias_filler {
      type: "constant"
      value: 0.1
    }
  }
}
layer {
  name: "relu2"
  type: "ReLU"
  bottom: "conv2"
  top: "conv2"
}
layer {
  name: "pool2"
  type: "Pooling"
  bottom: "conv2"
  top: "pool2"
  pooling_param {
    pool: MAX
    kernel_size: 3
    stride: 2
  }
}
layer {
  name: "norm2"
  type: "LRN"
  bottom: "pool2"
  top: "norm2"
  lrn_param {
    local_size: 5
    alpha: 0.0001
    beta: 0.75
  }
}
layer {
  name: "conv3"
  type: "Convolution"
  bottom: "norm2"
  top: "conv3"
  param {
    lr_mult: 0
  }
  param {
    lr_mult: 0
  }
  convolution_param {
    num_output: 384
    pad: 1
    kernel_size: 3
    group: 1
    stride: 1
    weight_filler {
      type: "gaussian"
      std: 0.01
    }
    bias_filler {
      type: "constant"
      value: 0.1
    }
  }
}
layer {
  name: "relu3"
  type: "ReLU"
  bottom: "conv3"
  top: "conv3"
}
layer {
  name: "conv4"
  type: "Convolution"
  bottom: "conv3"
  top: "conv4"
  param {
    lr_mult: 0
  }
  param {
    lr_mult: 0
  }
  convolution_param {
    num_output: 384
    pad: 1
    kernel_size: 3
    group: 2
    stride: 1
    weight_filler {
      type: "gaussian"
      std: 0.01
    }
    bias_filler {
      type: "constant"
      value: 0.1
    }
  }
}
layer {
  name: "relu4"
  type: "ReLU"
  bottom: "conv4"
  top: "conv4"
}
layer {
  name: "conv5"
  type: "Convolution"
  bottom: "conv4"
  top: "conv5"
  param {
    lr_mult: 0
  }
  param {
    lr_mult: 0
  }
  convolution_param {
    num_output: 256
    pad: 1
    kernel_size: 3
    group: 2
    stride: 1
    weight_filler {
      type: "gaussian"
      std: 0.01
    }
    bias_filler {
      type: "constant"
      value: 0.1
    }
  }
}
layer {
  name: "relu5"
  type: "ReLU"
  bottom: "conv5"
  top: "conv5"
}
layer {
  name: "pool5"
  type: "Pooling"
  bottom: "conv5"
  top: "pool5"
  pooling_param {
    pool: MAX
    kernel_size: 3
    stride: 2
  }
}
layer {
  name: "fc6_sunset"
  type: "InnerProduct"
  bottom: "pool5"
  top: "fc6_sunset"
  param {
    lr_mult: 1
    decay_mult: 1
  }
  param {
    lr_mult: 2
    decay_mult: 0
  }
  inner_product_param {
    num_output: 4096
    weight_filler {
      type: "gaussian"
      std: 0.005
    }
    bias_filler {
      type: "constant"
      value: 0.1
    }
  }
}
layer {
  name: "relu6"
  type: "ReLU"
  bottom: "fc6_sunset"
  top: "fc6_sunset"
}
layer {
  name: "drop6"
  type: "Dropout"
  bottom: "fc6_sunset"
  top: "fc6_sunset"
}
layer {
  name: "fc7"
  type: "InnerProduct"
  bottom: "fc6_sunset"
  top: "fc7"
  param {
    lr_mult: 1
    decay_mult: 1
  }
  param {
    lr_mult: 2
    decay_mult: 0
  }
  inner_product_param {
    num_output: 4096
    weight_filler {
      type: "gaussian"
      std: 0.005
    }
    bias_filler {
      type: "constant"
      value: 0.1
    }
  }
}
layer {
  name: "relu7"
  type: "ReLU"
  bottom: "fc7"
  top: "fc7"
}
layer {
  name: "drop7"
  type: "Dropout"
  bottom: "fc7"
  top: "fc7"
}
layer {
  name: "fc8_sunset"
  type: "InnerProduct"
  bottom: "fc7"
  top: "fc8_sunset"
  param {
    lr_mult: 1
    decay_mult: 1
  }
  param {
    lr_mult: 2
    decay_mult: 0
  }
  inner_product_param {
    num_output: 2
  }
}
layer {
  name: "loss"
  type: "SoftmaxWithLoss"
  bottom: "fc8_sunset"
  bottom: "label"
  top: "loss"
}
layer {
  name: "acc"
  type: "Accuracy"
  bottom: "fc8_sunset"
  bottom: "label"
  top: "acc"
}
I0427 13:21:47.445652 1952608256 layer_factory.hpp:77] Creating layer data
I0427 13:21:47.451561 1952608256 net.cpp:91] Creating Layer data
I0427 13:21:47.451622 1952608256 net.cpp:399] data -> data
I0427 13:21:47.451653 1952608256 net.cpp:399] data -> label
I0427 13:21:47.451673 1952608256 data_transformer.cpp:25] Loading mean file from: /Users/tianchuliang/documents/gt_acad/7616spring16/hwsoln/hw4/data/Sunset/Train_aug/sunset_train_aug_mean.binaryproto
I0427 13:21:47.452376 528384 db_lmdb.cpp:38] Opened lmdb /Users/tianchuliang/documents/gt_acad/7616spring16/hwsoln/hw4/data/Sunset/Train_aug/sunset_train_lmdb_aug
I0427 13:21:47.457432 1952608256 data_layer.cpp:41] output data size: 250,3,256,256
I0427 13:21:47.730907 1952608256 net.cpp:141] Setting up data
I0427 13:21:47.730936 1952608256 net.cpp:148] Top shape: 250 3 256 256 (49152000)
I0427 13:21:47.730947 1952608256 net.cpp:148] Top shape: 250 (250)
I0427 13:21:47.730953 1952608256 net.cpp:156] Memory required for data: 196609000
I0427 13:21:47.730967 1952608256 layer_factory.hpp:77] Creating layer label_data_1_split
I0427 13:21:47.731009 1952608256 net.cpp:91] Creating Layer label_data_1_split
I0427 13:21:47.731021 1952608256 net.cpp:425] label_data_1_split <- label
I0427 13:21:47.731031 1952608256 net.cpp:399] label_data_1_split -> label_data_1_split_0
I0427 13:21:47.731045 1952608256 net.cpp:399] label_data_1_split -> label_data_1_split_1
I0427 13:21:47.731058 1952608256 net.cpp:141] Setting up label_data_1_split
I0427 13:21:47.731065 1952608256 net.cpp:148] Top shape: 250 (250)
I0427 13:21:47.731071 1952608256 net.cpp:148] Top shape: 250 (250)
I0427 13:21:47.731101 1952608256 net.cpp:156] Memory required for data: 196611000
I0427 13:21:47.731112 1952608256 layer_factory.hpp:77] Creating layer conv1
I0427 13:21:47.731133 1952608256 net.cpp:91] Creating Layer conv1
I0427 13:21:47.731140 1952608256 net.cpp:425] conv1 <- data
I0427 13:21:47.731150 1952608256 net.cpp:399] conv1 -> conv1
I0427 13:21:47.731741 1952608256 net.cpp:141] Setting up conv1
I0427 13:21:47.731756 1952608256 net.cpp:148] Top shape: 250 96 62 62 (92256000)
I0427 13:21:47.731762 1952608256 net.cpp:156] Memory required for data: 565635000
I0427 13:21:47.731771 1952608256 layer_factory.hpp:77] Creating layer relu1
I0427 13:21:47.731786 1952608256 net.cpp:91] Creating Layer relu1
I0427 13:21:47.731818 1952608256 net.cpp:425] relu1 <- conv1
I0427 13:21:47.731827 1952608256 net.cpp:386] relu1 -> conv1 (in-place)
I0427 13:21:47.731838 1952608256 net.cpp:141] Setting up relu1
I0427 13:21:47.731844 1952608256 net.cpp:148] Top shape: 250 96 62 62 (92256000)
I0427 13:21:47.731853 1952608256 net.cpp:156] Memory required for data: 934659000
I0427 13:21:47.731879 1952608256 layer_factory.hpp:77] Creating layer pool1
I0427 13:21:47.731904 1952608256 net.cpp:91] Creating Layer pool1
I0427 13:21:47.731912 1952608256 net.cpp:425] pool1 <- conv1
I0427 13:21:47.731920 1952608256 net.cpp:399] pool1 -> pool1
I0427 13:21:47.731945 1952608256 net.cpp:141] Setting up pool1
I0427 13:21:47.731950 1952608256 net.cpp:148] Top shape: 250 96 31 31 (23064000)
I0427 13:21:47.731958 1952608256 net.cpp:156] Memory required for data: 1026915000
I0427 13:21:47.731964 1952608256 layer_factory.hpp:77] Creating layer norm1
I0427 13:21:47.731974 1952608256 net.cpp:91] Creating Layer norm1
I0427 13:21:47.731981 1952608256 net.cpp:425] norm1 <- pool1
I0427 13:21:47.731988 1952608256 net.cpp:399] norm1 -> norm1
I0427 13:21:47.732002 1952608256 net.cpp:141] Setting up norm1
I0427 13:21:47.732007 1952608256 net.cpp:148] Top shape: 250 96 31 31 (23064000)
I0427 13:21:47.732038 1952608256 net.cpp:156] Memory required for data: 1119171000
I0427 13:21:47.732048 1952608256 layer_factory.hpp:77] Creating layer conv2
I0427 13:21:47.732069 1952608256 net.cpp:91] Creating Layer conv2
I0427 13:21:47.732077 1952608256 net.cpp:425] conv2 <- norm1
I0427 13:21:47.732087 1952608256 net.cpp:399] conv2 -> conv2
I0427 13:21:47.736963 1952608256 net.cpp:141] Setting up conv2
I0427 13:21:47.736989 1952608256 net.cpp:148] Top shape: 250 256 31 31 (61504000)
I0427 13:21:47.737000 1952608256 net.cpp:156] Memory required for data: 1365187000
I0427 13:21:47.737020 1952608256 layer_factory.hpp:77] Creating layer relu2
I0427 13:21:47.737033 1952608256 net.cpp:91] Creating Layer relu2
I0427 13:21:47.737040 1952608256 net.cpp:425] relu2 <- conv2
I0427 13:21:47.737047 1952608256 net.cpp:386] relu2 -> conv2 (in-place)
I0427 13:21:47.737058 1952608256 net.cpp:141] Setting up relu2
I0427 13:21:47.737066 1952608256 net.cpp:148] Top shape: 250 256 31 31 (61504000)
I0427 13:21:47.737074 1952608256 net.cpp:156] Memory required for data: 1611203000
I0427 13:21:47.737079 1952608256 layer_factory.hpp:77] Creating layer pool2
I0427 13:21:47.737090 1952608256 net.cpp:91] Creating Layer pool2
I0427 13:21:47.737097 1952608256 net.cpp:425] pool2 <- conv2
I0427 13:21:47.737104 1952608256 net.cpp:399] pool2 -> pool2
I0427 13:21:47.737123 1952608256 net.cpp:141] Setting up pool2
I0427 13:21:47.737129 1952608256 net.cpp:148] Top shape: 250 256 15 15 (14400000)
I0427 13:21:47.737154 1952608256 net.cpp:156] Memory required for data: 1668803000
I0427 13:21:47.737166 1952608256 layer_factory.hpp:77] Creating layer norm2
I0427 13:21:47.737179 1952608256 net.cpp:91] Creating Layer norm2
I0427 13:21:47.737185 1952608256 net.cpp:425] norm2 <- pool2
I0427 13:21:47.737195 1952608256 net.cpp:399] norm2 -> norm2
I0427 13:21:47.737208 1952608256 net.cpp:141] Setting up norm2
I0427 13:21:47.737215 1952608256 net.cpp:148] Top shape: 250 256 15 15 (14400000)
I0427 13:21:47.737223 1952608256 net.cpp:156] Memory required for data: 1726403000
I0427 13:21:47.737229 1952608256 layer_factory.hpp:77] Creating layer conv3
I0427 13:21:47.737242 1952608256 net.cpp:91] Creating Layer conv3
I0427 13:21:47.737249 1952608256 net.cpp:425] conv3 <- norm2
I0427 13:21:47.737259 1952608256 net.cpp:399] conv3 -> conv3
I0427 13:21:47.750071 1952608256 net.cpp:141] Setting up conv3
I0427 13:21:47.750095 1952608256 net.cpp:148] Top shape: 250 384 15 15 (21600000)
I0427 13:21:47.750108 1952608256 net.cpp:156] Memory required for data: 1812803000
I0427 13:21:47.750123 1952608256 layer_factory.hpp:77] Creating layer relu3
I0427 13:21:47.750136 1952608256 net.cpp:91] Creating Layer relu3
I0427 13:21:47.750144 1952608256 net.cpp:425] relu3 <- conv3
I0427 13:21:47.750159 1952608256 net.cpp:386] relu3 -> conv3 (in-place)
I0427 13:21:47.750213 1952608256 net.cpp:141] Setting up relu3
I0427 13:21:47.750221 1952608256 net.cpp:148] Top shape: 250 384 15 15 (21600000)
I0427 13:21:47.750231 1952608256 net.cpp:156] Memory required for data: 1899203000
I0427 13:21:47.750236 1952608256 layer_factory.hpp:77] Creating layer conv4
I0427 13:21:47.750250 1952608256 net.cpp:91] Creating Layer conv4
I0427 13:21:47.750257 1952608256 net.cpp:425] conv4 <- conv3
I0427 13:21:47.750265 1952608256 net.cpp:399] conv4 -> conv4
I0427 13:21:47.757832 1952608256 net.cpp:141] Setting up conv4
I0427 13:21:47.757858 1952608256 net.cpp:148] Top shape: 250 384 15 15 (21600000)
I0427 13:21:47.757869 1952608256 net.cpp:156] Memory required for data: 1985603000
I0427 13:21:47.757879 1952608256 layer_factory.hpp:77] Creating layer relu4
I0427 13:21:47.757891 1952608256 net.cpp:91] Creating Layer relu4
I0427 13:21:47.757899 1952608256 net.cpp:425] relu4 <- conv4
I0427 13:21:47.757908 1952608256 net.cpp:386] relu4 -> conv4 (in-place)
I0427 13:21:47.757921 1952608256 net.cpp:141] Setting up relu4
I0427 13:21:47.757927 1952608256 net.cpp:148] Top shape: 250 384 15 15 (21600000)
I0427 13:21:47.757935 1952608256 net.cpp:156] Memory required for data: 2072003000
I0427 13:21:47.757941 1952608256 layer_factory.hpp:77] Creating layer conv5
I0427 13:21:47.757953 1952608256 net.cpp:91] Creating Layer conv5
I0427 13:21:47.757958 1952608256 net.cpp:425] conv5 <- conv4
I0427 13:21:47.757971 1952608256 net.cpp:399] conv5 -> conv5
I0427 13:21:47.764019 1952608256 net.cpp:141] Setting up conv5
I0427 13:21:47.764047 1952608256 net.cpp:148] Top shape: 250 256 15 15 (14400000)
I0427 13:21:47.764060 1952608256 net.cpp:156] Memory required for data: 2129603000
I0427 13:21:47.764075 1952608256 layer_factory.hpp:77] Creating layer relu5
I0427 13:21:47.764097 1952608256 net.cpp:91] Creating Layer relu5
I0427 13:21:47.764106 1952608256 net.cpp:425] relu5 <- conv5
I0427 13:21:47.764114 1952608256 net.cpp:386] relu5 -> conv5 (in-place)
I0427 13:21:47.764127 1952608256 net.cpp:141] Setting up relu5
I0427 13:21:47.764133 1952608256 net.cpp:148] Top shape: 250 256 15 15 (14400000)
I0427 13:21:47.764142 1952608256 net.cpp:156] Memory required for data: 2187203000
I0427 13:21:47.764149 1952608256 layer_factory.hpp:77] Creating layer pool5
I0427 13:21:47.764159 1952608256 net.cpp:91] Creating Layer pool5
I0427 13:21:47.764165 1952608256 net.cpp:425] pool5 <- conv5
I0427 13:21:47.764173 1952608256 net.cpp:399] pool5 -> pool5
I0427 13:21:47.764185 1952608256 net.cpp:141] Setting up pool5
I0427 13:21:47.764191 1952608256 net.cpp:148] Top shape: 250 256 7 7 (3136000)
I0427 13:21:47.764199 1952608256 net.cpp:156] Memory required for data: 2199747000
I0427 13:21:47.764204 1952608256 layer_factory.hpp:77] Creating layer fc6_sunset
I0427 13:21:47.764247 1952608256 net.cpp:91] Creating Layer fc6_sunset
I0427 13:21:47.764261 1952608256 net.cpp:425] fc6_sunset <- pool5
I0427 13:21:47.764271 1952608256 net.cpp:399] fc6_sunset -> fc6_sunset
I0427 13:21:48.420809 1952608256 net.cpp:141] Setting up fc6_sunset
I0427 13:21:48.420840 1952608256 net.cpp:148] Top shape: 250 4096 (1024000)
I0427 13:21:48.420846 1952608256 net.cpp:156] Memory required for data: 2203843000
I0427 13:21:48.420853 1952608256 layer_factory.hpp:77] Creating layer relu6
I0427 13:21:48.420867 1952608256 net.cpp:91] Creating Layer relu6
I0427 13:21:48.420871 1952608256 net.cpp:425] relu6 <- fc6_sunset
I0427 13:21:48.420877 1952608256 net.cpp:386] relu6 -> fc6_sunset (in-place)
I0427 13:21:48.420886 1952608256 net.cpp:141] Setting up relu6
I0427 13:21:48.420893 1952608256 net.cpp:148] Top shape: 250 4096 (1024000)
I0427 13:21:48.420905 1952608256 net.cpp:156] Memory required for data: 2207939000
I0427 13:21:48.420912 1952608256 layer_factory.hpp:77] Creating layer drop6
I0427 13:21:48.420934 1952608256 net.cpp:91] Creating Layer drop6
I0427 13:21:48.420944 1952608256 net.cpp:425] drop6 <- fc6_sunset
I0427 13:21:48.420958 1952608256 net.cpp:386] drop6 -> fc6_sunset (in-place)
I0427 13:21:48.420980 1952608256 net.cpp:141] Setting up drop6
I0427 13:21:48.420989 1952608256 net.cpp:148] Top shape: 250 4096 (1024000)
I0427 13:21:48.421041 1952608256 net.cpp:156] Memory required for data: 2212035000
I0427 13:21:48.421056 1952608256 layer_factory.hpp:77] Creating layer fc7
I0427 13:21:48.421068 1952608256 net.cpp:91] Creating Layer fc7
I0427 13:21:48.421077 1952608256 net.cpp:425] fc7 <- fc6_sunset
I0427 13:21:48.421088 1952608256 net.cpp:399] fc7 -> fc7
I0427 13:21:48.616574 1952608256 net.cpp:141] Setting up fc7
I0427 13:21:48.616603 1952608256 net.cpp:148] Top shape: 250 4096 (1024000)
I0427 13:21:48.616610 1952608256 net.cpp:156] Memory required for data: 2216131000
I0427 13:21:48.616617 1952608256 layer_factory.hpp:77] Creating layer relu7
I0427 13:21:48.616631 1952608256 net.cpp:91] Creating Layer relu7
I0427 13:21:48.616636 1952608256 net.cpp:425] relu7 <- fc7
I0427 13:21:48.616641 1952608256 net.cpp:386] relu7 -> fc7 (in-place)
I0427 13:21:48.616649 1952608256 net.cpp:141] Setting up relu7
I0427 13:21:48.616652 1952608256 net.cpp:148] Top shape: 250 4096 (1024000)
I0427 13:21:48.616657 1952608256 net.cpp:156] Memory required for data: 2220227000
I0427 13:21:48.616660 1952608256 layer_factory.hpp:77] Creating layer drop7
I0427 13:21:48.616665 1952608256 net.cpp:91] Creating Layer drop7
I0427 13:21:48.616669 1952608256 net.cpp:425] drop7 <- fc7
I0427 13:21:48.616673 1952608256 net.cpp:386] drop7 -> fc7 (in-place)
I0427 13:21:48.616679 1952608256 net.cpp:141] Setting up drop7
I0427 13:21:48.616683 1952608256 net.cpp:148] Top shape: 250 4096 (1024000)
I0427 13:21:48.616688 1952608256 net.cpp:156] Memory required for data: 2224323000
I0427 13:21:48.616691 1952608256 layer_factory.hpp:77] Creating layer fc8_sunset
I0427 13:21:48.616698 1952608256 net.cpp:91] Creating Layer fc8_sunset
I0427 13:21:48.616700 1952608256 net.cpp:425] fc8_sunset <- fc7
I0427 13:21:48.616705 1952608256 net.cpp:399] fc8_sunset -> fc8_sunset
I0427 13:21:48.616740 1952608256 net.cpp:141] Setting up fc8_sunset
I0427 13:21:48.616745 1952608256 net.cpp:148] Top shape: 250 2 (500)
I0427 13:21:48.616775 1952608256 net.cpp:156] Memory required for data: 2224325000
I0427 13:21:48.616794 1952608256 layer_factory.hpp:77] Creating layer fc8_sunset_fc8_sunset_0_split
I0427 13:21:48.616808 1952608256 net.cpp:91] Creating Layer fc8_sunset_fc8_sunset_0_split
I0427 13:21:48.616816 1952608256 net.cpp:425] fc8_sunset_fc8_sunset_0_split <- fc8_sunset
I0427 13:21:48.616830 1952608256 net.cpp:399] fc8_sunset_fc8_sunset_0_split -> fc8_sunset_fc8_sunset_0_split_0
I0427 13:21:48.616843 1952608256 net.cpp:399] fc8_sunset_fc8_sunset_0_split -> fc8_sunset_fc8_sunset_0_split_1
I0427 13:21:48.616854 1952608256 net.cpp:141] Setting up fc8_sunset_fc8_sunset_0_split
I0427 13:21:48.616859 1952608256 net.cpp:148] Top shape: 250 2 (500)
I0427 13:21:48.616868 1952608256 net.cpp:148] Top shape: 250 2 (500)
I0427 13:21:48.616873 1952608256 net.cpp:156] Memory required for data: 2224329000
I0427 13:21:48.616879 1952608256 layer_factory.hpp:77] Creating layer loss
I0427 13:21:48.616891 1952608256 net.cpp:91] Creating Layer loss
I0427 13:21:48.616895 1952608256 net.cpp:425] loss <- fc8_sunset_fc8_sunset_0_split_0
I0427 13:21:48.616900 1952608256 net.cpp:425] loss <- label_data_1_split_0
I0427 13:21:48.616905 1952608256 net.cpp:399] loss -> loss
…
I0427 13:21:48.617627 1952608256 solver.cpp:181] Creating test net (#0) specified by test_net file: /Users/tianchuliang/documents/gt_acad/7616spring16/hwsoln/hw4/nets/my_sunset_net/my_sunset_net_test_aug_cmdline.prototxt
I0427 13:21:48.617681 1952608256 net.cpp:49] Initializing net from parameters: 
state {
  phase: TEST
}
layer {
  name: "data"
  type: "Data"
  top: "data"
  top: "label"
  transform_param {
    mirror: false
    crop_size: 256
    mean_file: "/Users/tianchuliang/documents/gt_acad/7616spring16/hwsoln/hw4/data/Sunset/Train_aug/sunset_train_aug_mean.binaryproto"
  }
  data_param {
    source: "/Users/tianchuliang/documents/gt_acad/7616spring16/hwsoln/hw4/data/Sunset/Test/sunset_test_lmdb"
    batch_size: 50
    backend: LMDB
  }
}
layer {
  name: "conv1"
  type: "Convolution"
  bottom: "data"
  top: "conv1"
  param {
    lr_mult: 0
  }
  param {
    lr_mult: 0
  }
  convolution_param {
    num_output: 96
    pad: 0
    kernel_size: 11
    group: 1
    stride: 4
    weight_filler {
      type: "gaussian"
      std: 0.01
    }
    bias_filler {
      type: "constant"
      value: 0.1
    }
  }
}
layer {
  name: "relu1"
  type: "ReLU"
  bottom: "conv1"
  top: "conv1"
}
layer {
  name: "pool1"
  type: "Pooling"
  bottom: "conv1"
  top: "pool1"
  pooling_param {
    pool: MAX
    kernel_size: 3
    stride: 2
  }
}
layer {
  name: "norm1"
  type: "LRN"
  bottom: "pool1"
  top: "norm1"
  lrn_param {
    local_size: 5
    alpha: 0.0001
    beta: 0.75
  }
}
layer {
  name: "conv2"
  type: "Convolution"
  bottom: "norm1"
  top: "conv2"
  param {
    lr_mult: 0
  }
  param {
    lr_mult: 0
  }
  convolution_param {
    num_output: 256
    pad: 2
    kernel_size: 5
    group: 2
    stride: 1
    weight_filler {
      type: "gaussian"
      std: 0.01
    }
    bias_filler {
      type: "constant"
      value: 0.1
    }
  }
}
layer {
  name: "relu2"
  type: "ReLU"
  bottom: "conv2"
  top: "conv2"
}
layer {
  name: "pool2"
  type: "Pooling"
  bottom: "conv2"
  top: "pool2"
  pooling_param {
    pool: MAX
    kernel_size: 3
    stride: 2
  }
}
layer {
  name: "norm2"
  type: "LRN"
  bottom: "pool2"
  top: "norm2"
  lrn_param {
    local_size: 5
    alpha: 0.0001
    beta: 0.75
  }
}
layer {
  name: "conv3"
  type: "Convolution"
  bottom: "norm2"
  top: "conv3"
  param {
    lr_mult: 0
  }
  param {
    lr_mult: 0
  }
  convolution_param {
    num_output: 384
    pad: 1
    kernel_size: 3
    group: 1
    stride: 1
    weight_filler {
      type: "gaussian"
      std: 0.01
    }
    bias_filler {
      type: "constant"
      value: 0.1
    }
  }
}
layer {
  name: "relu3"
  type: "ReLU"
  bottom: "conv3"
  top: "conv3"
}
layer {
  name: "conv4"
  type: "Convolution"
  bottom: "conv3"
  top: "conv4"
  param {
    lr_mult: 0
  }
  param {
    lr_mult: 0
  }
  convolution_param {
    num_output: 384
    pad: 1
    kernel_size: 3
    group: 2
    stride: 1
    weight_filler {
      type: "gaussian"
      std: 0.01
    }
    bias_filler {
      type: "constant"
      value: 0.1
    }
  }
}
layer {
  name: "relu4"
  type: "ReLU"
  bottom: "conv4"
  top: "conv4"
}
layer {
  name: "conv5"
  type: "Convolution"
  bottom: "conv4"
  top: "conv5"
  param {
    lr_mult: 0
  }
  param {
    lr_mult: 0
  }
  convolution_param {
    num_output: 256
    pad: 1
    kernel_size: 3
    group: 2
    stride: 1
    weight_filler {
      type: "gaussian"
      std: 0.01
    }
    bias_filler {
      type: "constant"
      value: 0.1
    }
  }
}
layer {
  name: "relu5"
  type: "ReLU"
  bottom: "conv5"
  top: "conv5"
}
layer {
  name: "pool5"
  type: "Pooling"
  bottom: "conv5"
  top: "pool5"
  pooling_param {
    pool: MAX
    kernel_size: 3
    stride: 2
  }
}
layer {
  name: "fc6_sunset"
  type: "InnerProduct"
  bottom: "pool5"
  top: "fc6_sunset"
  param {
    lr_mult: 1
    decay_mult: 1
  }
  param {
    lr_mult: 2
    decay_mult: 0
  }
  inner_product_param {
    num_output: 4096
    weight_filler {
      type: "gaussian"
      std: 0.005
    }
    bias_filler {
      type: "constant"
      value: 0.1
    }
  }
}
layer {
  name: "relu6"
  type: "ReLU"
  bottom: "fc6_sunset"
  top: "fc6_sunset"
}
layer {
  name: "fc7"
  type: "InnerProduct"
  bottom: "fc6_sunset"
  top: "fc7"
  param {
    lr_mult: 1
    decay_mult: 1
  }
  param {
    lr_mult: 2
    decay_mult: 0
  }
  inner_product_param {
    num_output: 4096
    weight_filler {
      type: "gaussian"
      std: 0.005
    }
    bias_filler {
      type: "constant"
      value: 0.1
    }
  }
}
layer {
  name: "relu7"
  type: "ReLU"
  bottom: "fc7"
  top: "fc7"
}
layer {
  name: "fc8_sunset"
  type: "InnerProduct"
  bottom: "fc7"
  top: "fc8_sunset"
  param {
    lr_mult: 1
    decay_mult: 1
  }
  param {
    lr_mult: 2
    decay_mult: 0
  }
  inner_product_param {
    num_output: 2
  }
}
layer {
  name: "probs"
  type: "Softmax"
  bottom: "fc8_sunset"
  top: "probs"
}
layer {
  name: "loss"
  type: "SoftmaxWithLoss"
  bottom: "fc8_sunset"
  bottom: "label"
  top: "loss"
}
layer {
  name: "acc"
  type: "Accuracy"
  bottom: "fc8_sunset"
  bottom: "label"
  top: "acc"
}
I0427 13:21:48.617993 1952608256 layer_factory.hpp:77] Creating layer data
I0427 13:21:48.618078 1952608256 net.cpp:91] Creating Layer data
I0427 13:21:48.618090 1952608256 net.cpp:399] data -> data
I0427 13:21:48.618104 1952608256 net.cpp:399] data -> label
I0427 13:21:48.618118 1952608256 data_transformer.cpp:25] Loading mean file from: /Users/tianchuliang/documents/gt_acad/7616spring16/hwsoln/hw4/data/Sunset/Train_aug/sunset_train_aug_mean.binaryproto
I0427 13:21:48.618197 1601536 db_lmdb.cpp:38] Opened lmdb /Users/tianchuliang/documents/gt_acad/7616spring16/hwsoln/hw4/data/Sunset/Test/sunset_test_lmdb
I0427 13:21:48.620332 1952608256 data_layer.cpp:41] output data size: 50,3,256,256
I0427 13:21:48.685940 1952608256 net.cpp:141] Setting up data
I0427 13:21:48.685966 1952608256 net.cpp:148] Top shape: 50 3 256 256 (9830400)
I0427 13:21:48.685972 1952608256 net.cpp:148] Top shape: 50 (50)
I0427 13:21:48.685976 1952608256 net.cpp:156] Memory required for data: 39321800
I0427 13:21:48.685983 1952608256 layer_factory.hpp:77] Creating layer label_data_1_split
I0427 13:21:48.685994 1952608256 net.cpp:91] Creating Layer label_data_1_split
I0427 13:21:48.685998 1952608256 net.cpp:425] label_data_1_split <- label
I0427 13:21:48.686005 1952608256 net.cpp:399] label_data_1_split -> label_data_1_split_0
I0427 13:21:48.686022 1952608256 net.cpp:399] label_data_1_split -> label_data_1_split_1
I0427 13:21:48.686036 1952608256 net.cpp:141] Setting up label_data_1_split
I0427 13:21:48.686043 1952608256 net.cpp:148] Top shape: 50 (50)
I0427 13:21:48.686049 1952608256 net.cpp:148] Top shape: 50 (50)
I0427 13:21:48.686056 1952608256 net.cpp:156] Memory required for data: 39322200
I0427 13:21:48.686061 1952608256 layer_factory.hpp:77] Creating layer conv1
I0427 13:21:48.686076 1952608256 net.cpp:91] Creating Layer conv1
I0427 13:21:48.686084 1952608256 net.cpp:425] conv1 <- data
I0427 13:21:48.686106 1952608256 net.cpp:399] conv1 -> conv1
I0427 13:21:48.686568 1952608256 net.cpp:141] Setting up conv1
I0427 13:21:48.686578 1952608256 net.cpp:148] Top shape: 50 96 62 62 (18451200)
I0427 13:21:48.686583 1952608256 net.cpp:156] Memory required for data: 113127000
I0427 13:21:48.686592 1952608256 layer_factory.hpp:77] Creating layer relu1
I0427 13:21:48.686604 1952608256 net.cpp:91] Creating Layer relu1
I0427 13:21:48.686611 1952608256 net.cpp:425] relu1 <- conv1
I0427 13:21:48.686625 1952608256 net.cpp:386] relu1 -> conv1 (in-place)
I0427 13:21:48.686648 1952608256 net.cpp:141] Setting up relu1
I0427 13:21:48.686656 1952608256 net.cpp:148] Top shape: 50 96 62 62 (18451200)
I0427 13:21:48.686666 1952608256 net.cpp:156] Memory required for data: 186931800
I0427 13:21:48.686672 1952608256 layer_factory.hpp:77] Creating layer pool1
I0427 13:21:48.686683 1952608256 net.cpp:91] Creating Layer pool1
I0427 13:21:48.686691 1952608256 net.cpp:425] pool1 <- conv1
I0427 13:21:48.686699 1952608256 net.cpp:399] pool1 -> pool1
I0427 13:21:48.686714 1952608256 net.cpp:141] Setting up pool1
I0427 13:21:48.686720 1952608256 net.cpp:148] Top shape: 50 96 31 31 (4612800)
I0427 13:21:48.686728 1952608256 net.cpp:156] Memory required for data: 205383000
I0427 13:21:48.686734 1952608256 layer_factory.hpp:77] Creating layer norm1
I0427 13:21:48.686770 1952608256 net.cpp:91] Creating Layer norm1
I0427 13:21:48.686784 1952608256 net.cpp:425] norm1 <- pool1
I0427 13:21:48.686794 1952608256 net.cpp:399] norm1 -> norm1
I0427 13:21:48.686808 1952608256 net.cpp:141] Setting up norm1
I0427 13:21:48.686815 1952608256 net.cpp:148] Top shape: 50 96 31 31 (4612800)
I0427 13:21:48.686822 1952608256 net.cpp:156] Memory required for data: 223834200
I0427 13:21:48.686828 1952608256 layer_factory.hpp:77] Creating layer conv2
I0427 13:21:48.686841 1952608256 net.cpp:91] Creating Layer conv2
I0427 13:21:48.686847 1952608256 net.cpp:425] conv2 <- norm1
I0427 13:21:48.686856 1952608256 net.cpp:399] conv2 -> conv2
I0427 13:21:48.690392 1952608256 net.cpp:141] Setting up conv2
I0427 13:21:48.690417 1952608256 net.cpp:148] Top shape: 50 256 31 31 (12300800)
I0427 13:21:48.690424 1952608256 net.cpp:156] Memory required for data: 273037400
I0427 13:21:48.690435 1952608256 layer_factory.hpp:77] Creating layer relu2
I0427 13:21:48.690445 1952608256 net.cpp:91] Creating Layer relu2
I0427 13:21:48.690449 1952608256 net.cpp:425] relu2 <- conv2
I0427 13:21:48.690455 1952608256 net.cpp:386] relu2 -> conv2 (in-place)
I0427 13:21:48.690467 1952608256 net.cpp:141] Setting up relu2
I0427 13:21:48.690474 1952608256 net.cpp:148] Top shape: 50 256 31 31 (12300800)
I0427 13:21:48.690532 1952608256 net.cpp:156] Memory required for data: 322240600
I0427 13:21:48.690539 1952608256 layer_factory.hpp:77] Creating layer pool2
I0427 13:21:48.690551 1952608256 net.cpp:91] Creating Layer pool2
I0427 13:21:48.690557 1952608256 net.cpp:425] pool2 <- conv2
I0427 13:21:48.690565 1952608256 net.cpp:399] pool2 -> pool2
I0427 13:21:48.690582 1952608256 net.cpp:141] Setting up pool2
I0427 13:21:48.690589 1952608256 net.cpp:148] Top shape: 50 256 15 15 (2880000)
I0427 13:21:48.690599 1952608256 net.cpp:156] Memory required for data: 333760600
I0427 13:21:48.690605 1952608256 layer_factory.hpp:77] Creating layer norm2
I0427 13:21:48.690615 1952608256 net.cpp:91] Creating Layer norm2
I0427 13:21:48.690623 1952608256 net.cpp:425] norm2 <- pool2
I0427 13:21:48.690632 1952608256 net.cpp:399] norm2 -> norm2
I0427 13:21:48.690647 1952608256 net.cpp:141] Setting up norm2
I0427 13:21:48.690654 1952608256 net.cpp:148] Top shape: 50 256 15 15 (2880000)
I0427 13:21:48.690661 1952608256 net.cpp:156] Memory required for data: 345280600
I0427 13:21:48.690667 1952608256 layer_factory.hpp:77] Creating layer conv3
I0427 13:21:48.690680 1952608256 net.cpp:91] Creating Layer conv3
I0427 13:21:48.690687 1952608256 net.cpp:425] conv3 <- norm2
I0427 13:21:48.690697 1952608256 net.cpp:399] conv3 -> conv3
I0427 13:21:48.701717 1952608256 net.cpp:141] Setting up conv3
I0427 13:21:48.701745 1952608256 net.cpp:148] Top shape: 50 384 15 15 (4320000)
I0427 13:21:48.701753 1952608256 net.cpp:156] Memory required for data: 362560600
I0427 13:21:48.701771 1952608256 layer_factory.hpp:77] Creating layer relu3
I0427 13:21:48.701786 1952608256 net.cpp:91] Creating Layer relu3
I0427 13:21:48.701792 1952608256 net.cpp:425] relu3 <- conv3
I0427 13:21:48.701812 1952608256 net.cpp:386] relu3 -> conv3 (in-place)
I0427 13:21:48.701825 1952608256 net.cpp:141] Setting up relu3
I0427 13:21:48.701833 1952608256 net.cpp:148] Top shape: 50 384 15 15 (4320000)
I0427 13:21:48.701841 1952608256 net.cpp:156] Memory required for data: 379840600
I0427 13:21:48.701849 1952608256 layer_factory.hpp:77] Creating layer conv4
I0427 13:21:48.701864 1952608256 net.cpp:91] Creating Layer conv4
I0427 13:21:48.701870 1952608256 net.cpp:425] conv4 <- conv3
I0427 13:21:48.701903 1952608256 net.cpp:399] conv4 -> conv4
I0427 13:21:48.709460 1952608256 net.cpp:141] Setting up conv4
I0427 13:21:48.709482 1952608256 net.cpp:148] Top shape: 50 384 15 15 (4320000)
I0427 13:21:48.709491 1952608256 net.cpp:156] Memory required for data: 397120600
I0427 13:21:48.709503 1952608256 layer_factory.hpp:77] Creating layer relu4
I0427 13:21:48.709517 1952608256 net.cpp:91] Creating Layer relu4
I0427 13:21:48.709547 1952608256 net.cpp:425] relu4 <- conv4
I0427 13:21:48.709559 1952608256 net.cpp:386] relu4 -> conv4 (in-place)
I0427 13:21:48.709571 1952608256 net.cpp:141] Setting up relu4
I0427 13:21:48.709578 1952608256 net.cpp:148] Top shape: 50 384 15 15 (4320000)
I0427 13:21:48.709584 1952608256 net.cpp:156] Memory required for data: 414400600
I0427 13:21:48.709590 1952608256 layer_factory.hpp:77] Creating layer conv5
I0427 13:21:48.709604 1952608256 net.cpp:91] Creating Layer conv5
I0427 13:21:48.709609 1952608256 net.cpp:425] conv5 <- conv4
I0427 13:21:48.709616 1952608256 net.cpp:399] conv5 -> conv5
I0427 13:21:48.715215 1952608256 net.cpp:141] Setting up conv5
I0427 13:21:48.715242 1952608256 net.cpp:148] Top shape: 50 256 15 15 (2880000)
I0427 13:21:48.715253 1952608256 net.cpp:156] Memory required for data: 425920600
I0427 13:21:48.715275 1952608256 layer_factory.hpp:77] Creating layer relu5
I0427 13:21:48.715289 1952608256 net.cpp:91] Creating Layer relu5
I0427 13:21:48.715297 1952608256 net.cpp:425] relu5 <- conv5
I0427 13:21:48.715309 1952608256 net.cpp:386] relu5 -> conv5 (in-place)
I0427 13:21:48.715322 1952608256 net.cpp:141] Setting up relu5
I0427 13:21:48.715329 1952608256 net.cpp:148] Top shape: 50 256 15 15 (2880000)
I0427 13:21:48.715338 1952608256 net.cpp:156] Memory required for data: 437440600
I0427 13:21:48.715344 1952608256 layer_factory.hpp:77] Creating layer pool5
I0427 13:21:48.715392 1952608256 net.cpp:91] Creating Layer pool5
I0427 13:21:48.715401 1952608256 net.cpp:425] pool5 <- conv5
I0427 13:21:48.715422 1952608256 net.cpp:399] pool5 -> pool5
I0427 13:21:48.715443 1952608256 net.cpp:141] Setting up pool5
I0427 13:21:48.715451 1952608256 net.cpp:148] Top shape: 50 256 7 7 (627200)
I0427 13:21:48.715459 1952608256 net.cpp:156] Memory required for data: 439949400
I0427 13:21:48.715466 1952608256 layer_factory.hpp:77] Creating layer fc6_sunset
I0427 13:21:48.715477 1952608256 net.cpp:91] Creating Layer fc6_sunset
I0427 13:21:48.715486 1952608256 net.cpp:425] fc6_sunset <- pool5
I0427 13:21:48.715497 1952608256 net.cpp:399] fc6_sunset -> fc6_sunset
I0427 13:21:49.295161 1952608256 net.cpp:141] Setting up fc6_sunset
I0427 13:21:49.295192 1952608256 net.cpp:148] Top shape: 50 4096 (204800)
I0427 13:21:49.295198 1952608256 net.cpp:156] Memory required for data: 440768600
I0427 13:21:49.295205 1952608256 layer_factory.hpp:77] Creating layer relu6
I0427 13:21:49.295215 1952608256 net.cpp:91] Creating Layer relu6
I0427 13:21:49.295220 1952608256 net.cpp:425] relu6 <- fc6_sunset
I0427 13:21:49.295225 1952608256 net.cpp:386] relu6 -> fc6_sunset (in-place)
I0427 13:21:49.295233 1952608256 net.cpp:141] Setting up relu6
I0427 13:21:49.295238 1952608256 net.cpp:148] Top shape: 50 4096 (204800)
I0427 13:21:49.295241 1952608256 net.cpp:156] Memory required for data: 441587800
I0427 13:21:49.295245 1952608256 layer_factory.hpp:77] Creating layer fc7
I0427 13:21:49.295284 1952608256 net.cpp:91] Creating Layer fc7
I0427 13:21:49.295296 1952608256 net.cpp:425] fc7 <- fc6_sunset
I0427 13:21:49.295303 1952608256 net.cpp:399] fc7 -> fc7
I0427 13:21:49.482590 1952608256 net.cpp:141] Setting up fc7
I0427 13:21:49.482630 1952608256 net.cpp:148] Top shape: 50 4096 (204800)
I0427 13:21:49.482635 1952608256 net.cpp:156] Memory required for data: 442407000
I0427 13:21:49.482643 1952608256 layer_factory.hpp:77] Creating layer relu7
I0427 13:21:49.482655 1952608256 net.cpp:91] Creating Layer relu7
I0427 13:21:49.482661 1952608256 net.cpp:425] relu7 <- fc7
I0427 13:21:49.482684 1952608256 net.cpp:386] relu7 -> fc7 (in-place)
I0427 13:21:49.482695 1952608256 net.cpp:141] Setting up relu7
I0427 13:21:49.482698 1952608256 net.cpp:148] Top shape: 50 4096 (204800)
I0427 13:21:49.482703 1952608256 net.cpp:156] Memory required for data: 443226200
I0427 13:21:49.482707 1952608256 layer_factory.hpp:77] Creating layer fc8_sunset
I0427 13:21:49.482715 1952608256 net.cpp:91] Creating Layer fc8_sunset
I0427 13:21:49.482722 1952608256 net.cpp:425] fc8_sunset <- fc7
I0427 13:21:49.482731 1952608256 net.cpp:399] fc8_sunset -> fc8_sunset
I0427 13:21:49.482761 1952608256 net.cpp:141] Setting up fc8_sunset
I0427 13:21:49.482769 1952608256 net.cpp:148] Top shape: 50 2 (100)
I0427 13:21:49.482776 1952608256 net.cpp:156] Memory required for data: 443226600
I0427 13:21:49.482786 1952608256 layer_factory.hpp:77] Creating layer fc8_sunset_fc8_sunset_0_split
I0427 13:21:49.482801 1952608256 net.cpp:91] Creating Layer fc8_sunset_fc8_sunset_0_split
I0427 13:21:49.482807 1952608256 net.cpp:425] fc8_sunset_fc8_sunset_0_split <- fc8_sunset
I0427 13:21:49.482816 1952608256 net.cpp:399] fc8_sunset_fc8_sunset_0_split -> fc8_sunset_fc8_sunset_0_split_0
I0427 13:21:49.482830 1952608256 net.cpp:399] fc8_sunset_fc8_sunset_0_split -> fc8_sunset_fc8_sunset_0_split_1
I0427 13:21:49.482841 1952608256 net.cpp:399] fc8_sunset_fc8_sunset_0_split -> fc8_sunset_fc8_sunset_0_split_2
I0427 13:21:49.482854 1952608256 net.cpp:141] Setting up fc8_sunset_fc8_sunset_0_split
I0427 13:21:49.482861 1952608256 net.cpp:148] Top shape: 50 2 (100)
I0427 13:21:49.482869 1952608256 net.cpp:148] Top shape: 50 2 (100)
I0427 13:21:49.482877 1952608256 net.cpp:148] Top shape: 50 2 (100)
I0427 13:21:49.482883 1952608256 net.cpp:156] Memory required for data: 443227800
I0427 13:21:49.482887 1952608256 layer_factory.hpp:77] Creating layer probs
I0427 13:21:49.482897 1952608256 net.cpp:91] Creating Layer probs
I0427 13:21:49.482900 1952608256 net.cpp:425] probs <- fc8_sunset_fc8_sunset_0_split_0
I0427 13:21:49.482935 1952608256 net.cpp:399] probs -> probs
I0427 13:21:49.482944 1952608256 net.cpp:141] Setting up probs
I0427 13:21:49.482949 1952608256 net.cpp:148] Top shape: 50 2 (100)
I0427 13:21:49.482951 1952608256 net.cpp:156] Memory required for data: 443228200
I0427 13:21:49.482955 1952608256 layer_factory.hpp:77] Creating layer loss
I0427 13:21:49.482960 1952608256 net.cpp:91] Creating Layer loss
I0427 13:21:49.482964 1952608256 net.cpp:425] loss <- fc8_sunset_fc8_sunset_0_split_1
I0427 13:21:49.482969 1952608256 net.cpp:425] loss <- label_data_1_split_0
I0427 13:21:49.482978 1952608256 net.cpp:399] loss -> loss
…
